cuda:0
[INFO] Done importing packages.
[INFO] Loading Traning and Test Datasets.
[INFO] Done loading data.
Network: Net(
  (conv1): Conv2d(3, 60, kernel_size=(3, 3), stride=(1, 1))
  (pool1): MaxPool2d(kernel_size=2, stride=2, padding=0, dilation=1, ceil_mode=False)
  (conv2): Conv2d(60, 920, kernel_size=(3, 3), stride=(1, 1))
  (pool2): MaxPool2d(kernel_size=3, stride=3, padding=1, dilation=1, ceil_mode=False)
  (fc1): Linear(in_features=23000, out_features=10000, bias=True)
  (fc2): Linear(in_features=10000, out_features=4800, bias=True)
  (fc3): Linear(in_features=4800, out_features=2400, bias=True)
  (fc4): Linear(in_features=2400, out_features=800, bias=True)
  (fc5): Linear(in_features=800, out_features=400, bias=True)
  (fc6): Linear(in_features=400, out_features=120, bias=True)
  (fc7): Linear(in_features=120, out_features=84, bias=True)
  (fc8): Linear(in_features=84, out_features=10, bias=True)
)
[TIMER] Process Time so far: 4.71875 seconds
Beginning Epoch 1...
Epoch: 1, Mini-Batches Processed:   500, Loss: 0.57618
Epoch: 1, Mini-Batches Processed:  1000, Loss: 0.5757
Epoch: 1, Mini-Batches Processed:  1500, Loss: 0.57604
Epoch: 1, Mini-Batches Processed:  2000, Loss: 0.57586
Epoch: 1, Mini-Batches Processed:  2500, Loss: 0.57574
Epoch: 1, Mini-Batches Processed:  3000, Loss: 0.57599
…
